OpenMV宝藏识别+避障/tflite模型/trained_fall.tflite (tflite, 639624 bytes, 54 tensors)

sequential/model/Conv1/Conv2D i1 [16, 3, 3, 3]
0	0x00	0
1	0x00	0
2	0x00	0
3	0x00	0
4	0x00	0
5	0x00	0
6	0x00	0
7	0x00	0
8	0x00	0
9	0x00	0
10	0x00	0
11	0x00	0
12	0x00	0
13	0x00	0
14	0x00	0
15	0x00	0
16	0x00	0
17	0x00	0
18	0x00	0
19	0x00	0
20	0x00	0
21	0x00	0
22	0x00	0
23	0x00	0
24	0x00	0
25	0x00	0
26	0x00	0
27	0x2e	46
28	0xfb	-5
29	0x1d	29
30	0xfb	-5
31	0xe8	-24
32	0x0e	14
33	0x81	-127
34	0x87	-121
35	0xbc	-68
36	0x02	2
37	0xfa	-6
38	0xfe	-2
39	0xea	-22
40	0x02	2
41	0xfa	-6
42	0x01	1
43	0xe0	-32
44	0x04	4
45	0xfc	-4
46	0x10	16
47	0xfd	-3
48	0xfb	-5
49	0x06	6
50	0xfd	-3
51	0x27	39
52	0xed	-19
53	0x0c	12
54	0x1e	30
55	0xfa	-6
56	0xfa	-6
57	0x4d	77
58	0x72	114
59	0x01	1
60	0x29	41
61	0xd9	-39
62	0x08	8
63	0x0a	10
64	0x0c	12
65	0xff	-1
66	0x47	71
67	0x7f	127
68	0xe4	-28
69	0x15	21
70	0xfb	-5
71	0xfa	-6
72	0x32	50
73	0xbe	-66
74	0x14	20
75	0x4b	75
76	0xd5	-43
77	0xeb	-21
78	0x22	34
79	0xca	-54
80	0x0f	15
81	0x07	7
82	0x21	33
83	0x04	4
84	0x21	33
85	0x5f	95
86	0x16	22
87	0x01	1
88	0x06	6
89	0xfc	-4
90	0x15	21
91	0x24	36
92	0x06	6
93	0x44	68
94	0x7f	127
95	0x1b	27
96	0xf4	-12
97	0xee	-18
98	0x04	4
99	0x06	6
100	0x04	4
101	0x05	5
102	0x1b	27
103	0x1b	27
104	0x09	9
105	0x00	0
106	0xfd	-3
107	0x04	4
108	0x2a	42
109	0x4c	76
110	0xf8	-8
111	0x12	18
112	0x56	86
113	0xf6	-10
114	0xf0	-16
115	0x09	9
116	0xfd	-3
117	0x31	49
118	0x60	96
119	0x35	53
120	0x23	35
121	0x7f	127
122	0x21	33
123	0x1f	31
124	0x35	53
125	0xf0	-16
126	0x38	56
127	0x4f	79
128	0x23	35
129	0x2e	46
130	0x7a	122
131	0x0d	13
132	0xe7	-25
133	0x15	21
134	0x12	18
135	0x08	8
136	0x02	2
137	0x89	-119
138	0xfd	-3
139	0x01	1
140	0x99	-103
141	0xfb	-5
142	0x1c	28
143	0xe5	-27
144	0x05	5
145	0xd6	-42
146	0x81	-127
147	0x00	0
148	0xd4	-44
149	0x8e	-114
150	0xff	-1
151	0x0d	13
152	0xe9	-23
153	0xfe	-2
154	0x09	9
155	0xef	-17
156	0x03	3
157	0xff	-1
158	0xf6	-10
159	0x02	2
160	0x0e	14
161	0xf6	-10
162	0x19	25
163	0xc1	-63
164	0x22	34
165	0x30	48
166	0xa9	-87
167	0x28	40
168	0x0a	10
169	0xec	-20
170	0x09	9
171	0x25	37
172	0xa0	-96
173	0x3e	62
174	0x40	64
175	0x81	-127
176	0x48	72
177	0x08	8
178	0xe4	-28
179	0x11	17
180	0x15	21
181	0xde	-34
182	0x0e	14
183	0x0f	15
184	0xd4	-44
185	0x1a	26
186	0xf4	-12
187	0x08	8
188	0x00	0
189	0xe1	-31
190	0x11	17
191	0x04	4
192	0x94	-108
193	0xd9	-39
194	0x01	1
195	0xe8	-24
196	0x17	23
197	0x02	2
198	0xf3	-13
199	0xf8	-8
200	0x01	1
201	0x81	-127
202	0xa3	-93
203	0xf9	-7
204	0xfa	-6
205	0xfb	-5
206	0x05	5
207	0xe9	-23
208	0x1e	30
209	0xf7	-9
210	0xf3	-13
211	0x0b	11
212	0x00	0
213	0xea	-22
214	0x19	25
215	0xfd	-3
216	0x6e	110
217	0x7f	127
218	0x49	73
219	0x69	105
220	0x7d	125
221	0x43	67
222	0x6a	106
223	0x77	119
224	0x40	64
225	0x6e	110
226	0x78	120
227	0x43	67
228	0x62	98
229	0x70	112
230	0x3a	58
231	0x68	104
232	0x71	113
233	0x39	57
234	0x68	104
235	0x72	114
236	0x41	65
237	0x62	98
238	0x72	114
239	0x3c	60
240	0x66	102
241	0x6f	111
242	0x3a	58
243	0xea	-22
244	0xfc	-4
245	0x08	8
246	0xf3	-13
247	0xfa	-6
248	0x00	0
249	0x04	4
250	0x04	4
251	0xf7	-9
252	0x5f	95
253	0x70	112
254	0xf7	-9
255	0x4a	74

sequential/model/expanded_conv_depthwise_BN/FusedBatchNormV3;sequential/model/expanded_conv_depthwise/depthwise;sequential/model/block_5_project/Conv2D i1 [1, 3, 3, 16]
0	0x94	-108
1	0x13	19
2	0xae	-82
3	0x82	-126
4	0x27	39
5	0xbd	-67
6	0x50	80
7	0xb4	-76
8	0xa6	-90
9	0xfd	-3
10	0xf8	-8
11	0x1d	29
12	0x81	-127
13	0x05	5
14	0x36	54
15	0xb7	-73
16	0x33	51
17	0x19	25
18	0x81	-127
19	0x7f	127
20	0x7f	127
21	0x81	-127
22	0x7f	127
23	0x81	-127
24	0xab	-85
25	0x7f	127
26	0x81	-127
27	0x33	51
28	0x97	-105
29	0x05	5
30	0x7f	127
31	0xe7	-25
32	0x18	24
33	0xe8	-24
34	0x5b	91
35	0xfe	-2
36	0xb8	-72
37	0x43	67
38	0xa1	-95
39	0x4d	77
40	0xa1	-95
41	0xe5	-27
42	0x04	4
43	0xf0	-16
44	0x3d	61
45	0x01	1
46	0x9a	-102
47	0xe3	-29
48	0x81	-127
49	0x7f	127
50	0xea	-22
51	0x0d	13
52	0xd4	-44
53	0x0f	15
54	0xe3	-29
55	0x0e	14
56	0xe4	-28
57	0x00	0
58	0x03	3
59	0x93	-109
60	0xcf	-49
61	0x08	8
62	0xe2	-30
63	0xf2	-14
64	0xb2	-78
65	0xd7	-41
66	0xc7	-57
67	0xf1	-15
68	0xf9	-7
69	0xe6	-26
70	0x08	8
71	0xe4	-28
72	0x94	-108
73	0xa7	-89
74	0x15	21
75	0xf4	-12
76	0x98	-104
77	0x81	-127
78	0x01	1
79	0x17	23
80	0x0e	14
81	0x01	1
82	0x41	65
83	0x02	2
84	0x03	3
85	0x22	34
86	0xe6	-26
87	0x21	33
88	0x81	-127
89	0x06	6
90	0xfe	-2
91	0x01	1
92	0xeb	-21
93	0x0c	12
94	0xfc	-4
95	0x2b	43
96	0x8d	-115
97	0xb8	-72
98	0x45	69
99	0x02	2
100	0xfa	-6
101	0x27	39
102	0xd9	-39
103	0x34	52
104	0xb4	-76
105	0x00	0
106	0x00	0
107	0x04	4
108	0x28	40
109	0x02	2
110	0xe5	-27
111	0x17	23
112	0x17	23
113	0xfc	-4
114	0x1f	31
115	0xfe	-2
116	0xe5	-27
117	0x28	40
118	0xde	-34
119	0x15	21
120	0x83	-125
121	0xf3	-13
122	0x00	0
123	0x54	84
124	0xc6	-58
125	0x00	0
126	0xe3	-29
127	0x91	-111
128	0x15	21
129	0xf9	-7
130	0x13	19
131	0x00	0
132	0x04	4
133	0x0e	14
134	0x09	9
135	0x16	22
136	0x8d	-115
137	0x04	4
138	0xff	-1
139	0x81	-127
140	0x6b	107
141	0x03	3
142	0x11	17
143	0x81	-127

sequential/model/expanded_conv_project/Conv2D i1 [8, 1, 1, 16]
0	0x00	0
1	0xea	-22
2	0x02	2
3	0xff	-1
4	0x7e	126
5	0x00	0
6	0xff	-1
7	0x01	1
8	0x00	0
9	0x81	-127
10	0xa4	-92
11	0xfc	-4
12	0x00	0
13	0x7b	123
14	0xfe	-2
15	0x00	0
16	0x00	0
17	0xe3	-29
18	0x00	0
19	0x55	85
20	0x49	73
21	0x0e	14
22	0x17	23
23	0x07	7
24	0x00	0
25	0xfb	-5
26	0x7f	127
27	0xd5	-43
28	0x00	0
29	0x1d	29
30	0xf4	-12
31	0x00	0
32	0x00	0
33	0x01	1
34	0xff	-1
35	0xf4	-12
36	0xc6	-58
37	0x04	4
38	0x0a	10
39	0x02	2
40	0x00	0
41	0x03	3
42	0xef	-17
43	0x01	1
44	0x00	0
45	0x7f	127
46	0xf8	-8
47	0x00	0
48	0x00	0
49	0xf5	-11
50	0xec	-20
51	0x81	-127
52	0x51	81
53	0x18	24
54	0x46	70
55	0x11	17
56	0x00	0
57	0x3d	61
58	0xff	-1
59	0x27	39
60	0x00	0
61	0xff	-1
62	0x13	19
63	0x00	0
64	0x00	0
65	0x32	50
66	0xe6	-26
67	0x23	35
68	0xc9	-55
69	0x1f	31
70	0x7f	127
71	0x0a	10
72	0x00	0
73	0xc3	-61
74	0x11	17
75	0xf7	-9
76	0x00	0
77	0xfa	-6
78	0x10	16
79	0x00	0
80	0x00	0
81	0xf0	-16
82	0xf5	-11
83	0x00	0
84	0xe9	-23
85	0xe9	-23
86	0xf4	-12
87	0x10	16
88	0x00	0
89	0x09	9
90	0xfb	-5
91	0xd4	-44
92	0x00	0
93	0xfb	-5
94	0x7f	127
95	0x00	0
96	0x00	0
97	0x12	18
98	0xfd	-3
99	0x01	1
100	0x32	50
101	0xea	-22
102	0xe8	-24
103	0xf8	-8
104	0x00	0
105	0x96	-106
106	0x72	114
107	0x3d	61
108	0x00	0
109	0x7f	127
110	0x3d	61
111	0x00	0
112	0x00	0
113	0x0e	14
114	0xf0	-16
115	0x7f	127
116	0x07	7
117	0xfd	-3
118	0x11	17
119	0x09	9
120	0x00	0
121	0x44	68
122	0xcc	-52
123	0x4c	76
124	0x00	0
125	0xf8	-8
126	0x31	49
127	0x00	0

sequential/model/block_1_expand/Conv2D i1 [48, 1, 1, 8]
0	0x10	16
1	0x81	-127
2	0x32	50
3	0xd4	-44
4	0x1c	28
5	0xef	-17
6	0xce	-50
7	0x17	23
8	0x47	71
9	0x42	66
10	0xea	-22
11	0xa1	-95
12	0x0b	11
13	0xf4	-12
14	0xb1	-79
15	0x7f	127
16	0x1f	31
17	0x06	6
18	0xd2	-46
19	0x7e	126
20	0x35	53
21	0x7f	127
22	0x30	48
23	0x5d	93
24	0x51	81
25	0x49	73
26	0xae	-82
27	0x7f	127
28	0xa2	-94
29	0xf9	-7
30	0xf7	-9
31	0x0e	14
32	0xdd	-35
33	0x9a	-102
34	0x4a	74
35	0x0a	10
36	0x06	6
37	0x1f	31
38	0xd3	-45
39	0x81	-127
40	0x14	20
41	0x06	6
42	0xde	-34
43	0x2a	42
44	0x03	3
45	0xe1	-31
46	0x28	40
47	0x7f	127
48	0x39	57
49	0xee	-18
50	0x81	-127
51	0xa7	-89
52	0x6e	110
53	0x0e	14
54	0x32	50
55	0xdc	-36
56	0x7f	127
57	0x11	17
58	0x15	21
59	0xe9	-23
60	0x1d	29
61	0xfa	-6
62	0x56	86
63	0xc4	-60
64	0x15	21
65	0x9e	-98
66	0x0d	13
67	0x68	104
68	0x02	2
69	0x18	24
70	0xf4	-12
71	0x81	-127
72	0x69	105
73	0x81	-127
74	0x0e	14
75	0xfe	-2
76	0xf3	-13
77	0x0d	13
78	0x87	-121
79	0x58	88
80	0x81	-127
81	0xdc	-36
82	0x8b	-117
83	0x13	19
84	0xf5	-11
85	0x05	5
86	0x9a	-102
87	0x35	53
88	0xeb	-21
89	0xd5	-43
90	0xf8	-8
91	0x97	-105
92	0x81	-127
93	0xde	-34
94	0x2f	47
95	0xf0	-16
96	0x10	16
97	0x07	7
98	0xd9	-39
99	0x43	67
100	0xb5	-75
101	0xe9	-23
102	0x3a	58
103	0x7f	127
104	0x00	0
105	0x00	0
106	0x00	0
107	0x00	0
108	0x00	0
109	0x00	0
110	0x00	0
111	0x00	0
112	0xfa	-6
113	0xdf	-33
114	0xfa	-6
115	0x0b	11
116	0x2a	42
117	0x7f	127
118	0x2e	46
119	0x29	41
120	0x2a	42
121	0x02	2
122	0x11	17
123	0x81	-127
124	0x42	66
125	0x27	39
126	0xc8	-56
127	0x4a	74
128	0x00	0
129	0x00	0
130	0x00	0
131	0x00	0
132	0x00	0
133	0x00	0
134	0x00	0
135	0x00	0
136	0x0f	15
137	0x18	24
138	0x7f	127
139	0x16	22
140	0xe5	-27
141	0xf7	-9
142	0x1d	29
143	0x1e	30
144	0x59	89
145	0x81	-127
146	0x19	25
147	0x21	33
148	0xfb	-5
149	0x14	20
150	0x8a	-118
151	0x03	3
152	0x81	-127
153	0xf3	-13
154	0x1c	28
155	0x4b	75
156	0xc7	-57
157	0xc6	-58
158	0x9d	-99
159	0x46	70
160	0x22	34
161	0x20	32
162	0xd6	-42
163	0x71	113
164	0xea	-22
165	0x81	-127
166	0xfb	-5
167	0x3d	61
168	0x38	56
169	0x16	22
170	0x7f	127
171	0x09	9
172	0xf2	-14
173	0xf6	-10
174	0x43	67
175	0x0b	11
176	0xb2	-78
177	0xef	-17
178	0x81	-127
179	0x03	3
180	0x05	5
181	0x0a	10
182	0x9c	-100
183	0x04	4
184	0x9b	-101
185	0x7f	127
186	0xee	-18
187	0xeb	-21
188	0x08	8
189	0xf5	-11
190	0x7f	127
191	0xb3	-77
192	0x06	6
193	0xca	-54
194	0xcd	-51
195	0x55	85
196	0xf7	-9
197	0xc4	-60
198	0x62	98
199	0x7f	127
200	0x0c	12
201	0x2d	45
202	0x23	35
203	0x1f	31
204	0x7f	127
205	0x7c	124
206	0xb4	-76
207	0xcc	-52
208	0xac	-84
209	0xe2	-30
210	0x81	-127
211	0xfd	-3
212	0x07	7
213	0x0e	14
214	0xa4	-92
215	0x00	0
216	0x01	1
217	0xe6	-26
218	0xe1	-31
219	0x07	7
220	0xd6	-42
221	0x7f	127
222	0x42	66
223	0x31	49
224	0x02	2
225	0xee	-18
226	0xec	-20
227	0x28	40
228	0x17	23
229	0x7f	127
230	0x33	51
231	0x3c	60
232	0x59	89
233	0x1d	29
234	0x7f	127
235	0x02	2
236	0xee	-18
237	0xf1	-15
238	0x56	86
239	0xfa	-6
240	0xb0	-80
241	0x7f	127
242	0xe8	-24
243	0xe5	-27
244	0x0a	10
245	0xfb	-5
246	0x64	100
247	0xcf	-49
248	0xd5	-43
249	0xa0	-96
250	0xec	-20
251	0x03	3
252	0x20	32
253	0xb8	-72
254	0x7f	127
255	0x6e	110

sequential/model/block_1_depthwise_BN/FusedBatchNormV3;sequential/model/block_1_depthwise/depthwise;sequential/model/block_3_depthwise/depthwise i1 [1, 3, 3, 48]
0	0xd5	-43
1	0xea	-22
2	0xf9	-7
3	0xef	-17
4	0x07	7
5	0xd9	-39
6	0xb1	-79
7	0xbc	-68
8	0xe5	-27
9	0xce	-50
10	0x08	8
11	0x41	65
12	0x22	34
13	0xb9	-71
14	0x72	114
15	0xd5	-43
16	0x8f	-113
17	0xac	-84
18	0x25	37
19	0xfa	-6
20	0xff	-1
21	0xb9	-71
22	0x91	-111
23	0xb1	-79
24	0xdd	-35
25	0x83	-125
26	0xc1	-63
27	0xec	-20
28	0x47	71
29	0x0f	15
30	0x5f	95
31	0x1a	26
32	0x81	-127
33	0xa7	-89
34	0xf9	-7
35	0x36	54
36	0x12	18
37	0x30	48
38	0x81	-127
39	0x4e	78
40	0xb4	-76
41	0xf2	-14
42	0x69	105
43	0x94	-108
44	0xfd	-3
45	0xdd	-35
46	0xa9	-87
47	0x6b	107
48	0x4b	75
49	0x0c	12
50	0xe4	-28
51	0xe4	-28
52	0x39	57
53	0x81	-127
54	0x81	-127
55	0xaf	-81
56	0x3d	61
57	0xb4	-76
58	0x8c	-116
59	0x6c	108
60	0x25	37
61	0xae	-82
62	0xff	-1
63	0x3e	62
64	0xcc	-52
65	0x8f	-113
66	0x3b	59
67	0x07	7
68	0x0a	10
69	0x90	-112
70	0x81	-127
71	0xba	-70
72	0xfc	-4
73	0x81	-127
74	0x88	-120
75	0xd8	-40
76	0xca	-54
77	0x15	21
78	0xc7	-57
79	0x36	54
80	0x1c	28
81	0x81	-127
82	0x41	65
83	0x54	84
84	0x0d	13
85	0x48	72
86	0xa4	-92
87	0x7f	127
88	0x81	-127
89	0x06	6
90	0x7d	125
91	0x81	-127
92	0x02	2
93	0xe9	-23
94	0x81	-127
95	0x5e	94
96	0xe0	-32
97	0x2b	43
98	0x06	6
99	0xfb	-5
100	0xc0	-64
101	0x94	-108
102	0xc6	-58
103	0xef	-17
104	0x57	87
105	0xf8	-8
106	0x81	-127
107	0x26	38
108	0x08	8
109	0xb9	-71
110	0x9b	-101
111	0xf5	-11
112	0x81	-127
113	0xe7	-25
114	0x1b	27
115	0x0c	12
116	0xf0	-16
117	0xb4	-76
118	0xdc	-36
119	0xe9	-23
120	0xf5	-11
121	0xe3	-29
122	0xc6	-58
123	0xf4	-12
124	0xf6	-10
125	0x12	18
126	0xe8	-24
127	0x09	9
128	0x6b	107
129	0xaa	-86
130	0x46	70
131	0x20	32
132	0x0e	14
133	0x24	36
134	0xfc	-4
135	0x10	16
136	0xb1	-79
137	0x03	3
138	0x07	7
139	0xb1	-79
140	0xef	-17
141	0x05	5
142	0xc9	-55
143	0x0f	15
144	0xab	-85
145	0x81	-127
146	0xd4	-44
147	0xd5	-43
148	0xf6	-10
149	0x36	54
150	0x63	99
151	0x97	-105
152	0xe5	-27
153	0x94	-108
154	0xeb	-21
155	0x70	112
156	0x5a	90
157	0xc0	-64
158	0x1b	27
159	0xa0	-96
160	0x87	-121
161	0xa2	-94
162	0x59	89
163	0xb3	-77
164	0x29	41
165	0xa8	-88
166	0x99	-103
167	0x81	-127
168	0x2a	42
169	0x8a	-118
170	0xb2	-78
171	0xda	-38
172	0x7f	127
173	0xc4	-60
174	0x7f	127
175	0x54	84
176	0xd5	-43
177	0xac	-84
178	0xf1	-15
179	0x54	84
180	0xdd	-35
181	0xb3	-77
182	0x95	-107
183	0x59	89
184	0x2a	42
185	0x3b	59
186	0x68	104
187	0x94	-108
188	0xa5	-91
189	0x8b	-117
190	0x52	82
191	0x78	120
192	0x7f	127
193	0xad	-83
194	0x81	-127
195	0x81	-127
196	0x7f	127
197	0x29	41
198	0x5d	93
199	0x81	-127
200	0x65	101
201	0x81	-127
202	0x91	-111
203	0x7f	127
204	0x7f	127
205	0xf2	-14
206	0xfa	-6
207	0x7f	127
208	0xc4	-60
209	0x81	-127
210	0x7f	127
211	0x81	-127
212	0x7f	127
213	0x81	-127
214	0x88	-120
215	0x89	-119
216	0x7f	127
217	0x9d	-99
218	0x81	-127
219	0x81	-127
220	0x88	-120
221	0x81	-127
222	0xb9	-71
223	0x7f	127
224	0x1c	28
225	0x91	-111
226	0x7f	127
227	0x7f	127
228	0xbc	-68
229	0x81	-127
230	0xa0	-96
231	0x5a	90
232	0x3d	61
233	0x7f	127
234	0x7f	127
235	0x8b	-117
236	0x90	-112
237	0x81	-127
238	0x7d	125
239	0x7f	127
240	0xcb	-53
241	0x1f	31
242	0xc3	-61
243	0xab	-85
244	0x89	-119
245	0xe9	-23
246	0x1f	31
247	0xdb	-37
248	0x7f	127
249	0xec	-20
250	0xb3	-77
251	0x23	35
252	0x38	56
253	0xba	-70
254	0xe7	-25
255	0xd5	-43

sequential/model/block_1_project/Conv2D i1 [8, 1, 1, 48]
0	0xf4	-12
1	0xff	-1
2	0x09	9
3	0xa3	-93
4	0x0a	10
5	0x1a	26
6	0x06	6
7	0x06	6
8	0x03	3
9	0x06	6
10	0x02	2
11	0xfb	-5
12	0x61	97
13	0x00	0
14	0x01	1
15	0x06	6
16	0x00	0
17	0xf8	-8
18	0xfa	-6
19	0x00	0
20	0x4d	77
21	0xfc	-4
22	0x00	0
23	0x05	5
24	0x1d	29
25	0x24	36
26	0x0d	13
27	0x0c	12
28	0x05	5
29	0x04	4
30	0x03	3
31	0x81	-127
32	0x0a	10
33	0x06	6
34	0xff	-1
35	0x00	0
36	0xe4	-28
37	0x01	1
38	0xf0	-16
39	0x21	33
40	0x08	8
41	0xe6	-26
42	0xf8	-8
43	0x05	5
44	0x02	2
45	0xfe	-2
46	0x04	4
47	0x02	2
48	0xdc	-36
49	0xf8	-8
50	0xfd	-3
51	0xfa	-6
52	0x2c	44
53	0x1a	26
54	0xe3	-29
55	0x4c	76
56	0x14	20
57	0x06	6
58	0xe1	-31
59	0xea	-22
60	0x0c	12
61	0x00	0
62	0x12	18
63	0x25	37
64	0x00	0
65	0x28	40
66	0x12	18
67	0xd1	-47
68	0x00	0
69	0x15	21
70	0x7f	127
71	0x14	20
72	0xe4	-28
73	0xfe	-2
74	0x36	54
75	0x04	4
76	0x15	21
77	0xfd	-3
78	0x11	17
79	0xf5	-11
80	0x0e	14
81	0xf8	-8
82	0xf8	-8
83	0xeb	-21
84	0x06	6
85	0xca	-54
86	0x0a	10
87	0x04	4
88	0xf9	-7
89	0xf8	-8
90	0xb1	-79
91	0xf8	-8
92	0xe0	-32
93	0x07	7
94	0xd0	-48
95	0x9f	-97
96	0xc5	-59
97	0x0f	15
98	0xff	-1
99	0x0b	11
100	0x2d	45
101	0xf5	-11
102	0x1d	29
103	0x19	25
104	0xf7	-9
105	0x37	55
106	0x08	8
107	0xfa	-6
108	0x03	3
109	0x00	0
110	0x06	6
111	0x35	53
112	0x00	0
113	0x0c	12
114	0x81	-127
115	0x18	24
116	0x00	0
117	0x0d	13
118	0x06	6
119	0xf0	-16
120	0xe0	-32
121	0x02	2
122	0x25	37
123	0x05	5
124	0x09	9
125	0x1e	30
126	0x17	23
127	0x03	3
128	0x07	7
129	0xf9	-7
130	0xf5	-11
131	0xf3	-13
132	0x0b	11
133	0x05	5
134	0x04	4
135	0x00	0
136	0x25	37
137	0xf9	-7
138	0xe2	-30
139	0x00	0
140	0x18	24
141	0xc7	-57
142	0x19	25
143	0x0e	14
144	0x01	1
145	0x00	0
146	0xff	-1
147	0x08	8
148	0xfb	-5
149	0x1c	28
150	0x00	0
151	0xfd	-3
152	0x41	65
153	0x12	18
154	0xfd	-3
155	0xfe	-2
156	0x1a	26
157	0x00	0
158	0xe2	-30
159	0xf8	-8
160	0x00	0
161	0x00	0
162	0xf7	-9
163	0x01	1
164	0xfd	-3
165	0x00	0
166	0x06	6
167	0xee	-18
168	0xf4	-12
169	0xfa	-6
170	0xf7	-9
171	0xfe	-2
172	0xf8	-8
173	0xfd	-3
174	0xff	-1
175	0xf7	-9
176	0xcf	-49
177	0x2c	44
178	0xc9	-55
179	0xfe	-2
180	0x06	6
181	0x00	0
182	0x03	3
183	0x81	-127
184	0x00	0
185	0x04	4
186	0x01	1
187	0xcd	-51
188	0xfe	-2
189	0xff	-1
190	0xff	-1
191	0x06	6
192	0x00	0
193	0xfd	-3
194	0x50	80
195	0x22	34
196	0x03	3
197	0xec	-20
198	0xfe	-2
199	0xfd	-3
200	0x03	3
201	0xfc	-4
202	0xfe	-2
203	0xf8	-8
204	0xb0	-80
205	0x00	0
206	0xf5	-11
207	0x04	4
208	0x00	0
209	0x09	9
210	0x06	6
211	0x00	0
212	0x42	66
213	0x04	4
214	0x01	1
215	0xfc	-4
216	0xf1	-15
217	0x1f	31
218	0xfb	-5
219	0x2e	46
220	0xf9	-7
221	0xff	-1
222	0x00	0
223	0x62	98
224	0x04	4
225	0x04	4
226	0xff	-1
227	0xfe	-2
228	0x10	16
229	0xf4	-12
230	0xf5	-11
231	0xee	-18
232	0xfd	-3
233	0x81	-127
234	0x03	3
235	0x03	3
236	0xff	-1
237	0xfd	-3
238	0x00	0
239	0x01	1
240	0xf9	-7
241	0x2c	44
242	0x04	4
243	0xf8	-8
244	0x03	3
245	0x2e	46
246	0x1a	26
247	0x0c	12
248	0xec	-20
249	0x1d	29
250	0x07	7
251	0x36	54
252	0x19	25
253	0x00	0
254	0x81	-127
255	0xff	-1

sequential/model/block_2_expand/Conv2D i1 [48, 1, 1, 8]
0	0x4d	77
1	0x1d	29
2	0xff	-1
3	0xf8	-8
4	0x7f	127
5	0x1a	26
6	0xd0	-48
7	0xe8	-24
8	0xfa	-6
9	0xfe	-2
10	0x02	2
11	0x7f	127
12	0x09	9
13	0xfa	-6
14	0x06	6
15	0x0f	15
16	0x1c	28
17	0x81	-127
18	0xed	-19
19	0x28	40
20	0xfa	-6
21	0xbe	-66
22	0x4e	78
23	0x0c	12
24	0x7f	127
25	0xe1	-31
26	0xf8	-8
27	0x10	16
28	0xf6	-10
29	0xde	-34
30	0x1d	29
31	0x06	6
32	0x09	9
33	0xd1	-47
34	0x7f	127
35	0xf4	-12
36	0xf6	-10
37	0xd1	-47
38	0x0c	12
39	0xa3	-93
40	0x44	68
41	0x02	2
42	0x02	2
43	0xfd	-3
44	0x7f	127
45	0x0e	14
46	0xf6	-10
47	0xff	-1
48	0xf1	-15
49	0x5d	93
50	0xf3	-13
51	0x7f	127
52	0x1a	26
53	0x32	50
54	0xb8	-72
55	0xca	-54
56	0xfa	-6
57	0x7f	127
58	0xfd	-3
59	0x02	2
60	0x00	0
61	0xf3	-13
62	0x0f	15
63	0xfe	-2
64	0x7f	127
65	0x32	50
66	0xfc	-4
67	0x06	6
68	0xce	-50
69	0xe9	-23
70	0xff	-1
71	0xdb	-37
72	0x81	-127
73	0x0e	14
74	0x06	6
75	0x14	20
76	0x35	53
77	0x0a	10
78	0xf8	-8
79	0x02	2
80	0xb9	-71
81	0xf8	-8
82	0x0d	13
83	0x7f	127
84	0x27	39
85	0x1c	28
86	0xf1	-15
87	0xfd	-3
88	0x81	-127
89	0x01	1
90	0x0c	12
91	0xc0	-64
92	0x22	34
93	0x07	7
94	0xea	-22
95	0xd3	-45
96	0x7f	127
97	0x19	25
98	0x02	2
99	0x10	16
100	0xd2	-46
101	0xf4	-12
102	0x04	4
103	0xd3	-45
104	0xf5	-11
105	0x4d	77
106	0x81	-127
107	0xf8	-8
108	0x05	5
109	0x65	101
110	0xb8	-72
111	0x4a	74
112	0xcf	-49
113	0xe6	-26
114	0xf3	-13
115	0x7f	127
116	0x15	21
117	0x0a	10
118	0xfa	-6
119	0xe7	-25
120	0xfd	-3
121	0x7f	127
122	0x02	2
123	0xfd	-3
124	0x00	0
125	0xf1	-15
126	0x0a	10
127	0xce	-50
128	0xf5	-11
129	0x81	-127
130	0xec	-20
131	0x04	4
132	0xf7	-9
133	0x90	-112
134	0x75	117
135	0xe4	-28
136	0x14	20
137	0x7f	127
138	0x01	1
139	0xf4	-12
140	0x06	6
141	0x4d	77
142	0xaa	-86
143	0xed	-19
144	0xf8	-8
145	0x2c	44
146	0x81	-127
147	0xff	-1
148	0x08	8
149	0x36	54
150	0xe0	-32
151	0x3f	63
152	0xb6	-74
153	0x12	18
154	0x02	2
155	0x01	1
156	0x81	-127
157	0x03	3
158	0x16	22
159	0x19	25
160	0x81	-127
161	0xe9	-23
162	0xff	-1
163	0x01	1
164	0x4b	75
165	0xe2	-30
166	0x2a	42
167	0x01	1
168	0xc0	-64
169	0xfd	-3
170	0xfe	-2
171	0x02	2
172	0x81	-127
173	0xfc	-4
174	0x12	18
175	0x06	6
176	0x81	-127
177	0xe7	-25
178	0x00	0
179	0xfd	-3
180	0x55	85
181	0xf0	-16
182	0x24	36
183	0x32	50
184	0xec	-20
185	0xe8	-24
186	0xf9	-7
187	0xf8	-8
188	0xfe	-2
189	0x52	82
190	0x81	-127
191	0xa6	-90
192	0xf8	-8
193	0x28	40
194	0x81	-127
195	0x03	3
196	0x09	9
197	0x2f	47
198	0xed	-19
199	0x4c	76
200	0x63	99
201	0xdb	-37
202	0xff	-1
203	0x7f	127
204	0xb5	-75
205	0xf4	-12
206	0x0a	10
207	0xcf	-49
208	0x03	3
209	0xec	-20
210	0xfd	-3
211	0x01	1
212	0xf7	-9
213	0x79	121
214	0x7f	127
215	0xe3	-29
216	0x46	70
217	0xf8	-8
218	0xfe	-2
219	0x0d	13
220	0x7f	127
221	0x1c	28
222	0x23	35
223	0xed	-19
224	0x00	0
225	0x7f	127
226	0xbb	-69
227	0x05	5
228	0x06	6
229	0x51	81
230	0xe2	-30
231	0x7b	123
232	0xf8	-8
233	0x0c	12
234	0xfb	-5
235	0xf8	-8
236	0xfe	-2
237	0x58	88
238	0x81	-127
239	0xab	-85
240	0x03	3
241	0xfb	-5
242	0x01	1
243	0x81	-127
244	0xfa	-6
245	0x00	0
246	0xfd	-3
247	0xf3	-13
248	0xbe	-66
249	0x04	4
250	0x03	3
251	0x02	2
252	0x81	-127
253	0x08	8
254	0x0d	13
255	0x00	0

sequential/model/block_2_depthwise_BN/FusedBatchNormV3;sequential/model/block_2_depthwise/depthwise;sequential/model/block_3_depthwise/depthwise i1 [1, 3, 3, 48]
0	0x04	4
1	0xfd	-3
2	0x14	20
3	0x6d	109
4	0x04	4
5	0x51	81
6	0xff	-1
7	0x1c	28
8	0x0f	15
9	0x08	8
10	0x09	9
11	0x07	7
12	0xf8	-8
13	0xf7	-9
14	0xd3	-45
15	0x08	8
16	0xfe	-2
17	0x08	8
18	0xe9	-23
19	0x8e	-114
20	0xfa	-6
21	0xea	-22
22	0x7f	127
23	0xf6	-10
24	0xfd	-3
25	0x06	6
26	0xfb	-5
27	0x08	8
28	0xfb	-5
29	0x05	5
30	0x0f	15
31	0x62	98
32	0x14	20
33	0x1c	28
34	0x26	38
35	0xe4	-28
36	0x01	1
37	0x22	34
38	0xfe	-2
39	0x01	1
40	0x11	17
41	0xbc	-68
42	0xf8	-8
43	0xf7	-9
44	0x11	17
45	0x03	3
46	0xf9	-7
47	0xf6	-10
48	0x7f	127
49	0x0a	10
50	0x0f	15
51	0x81	-127
52	0x1c	28
53	0x57	87
54	0x0b	11
55	0x0b	11
56	0x7c	124
57	0x7f	127
58	0x07	7
59	0x2b	43
60	0xce	-50
61	0xe8	-24
62	0x05	5
63	0x08	8
64	0x7f	127
65	0xc8	-56
66	0xc4	-60
67	0xc8	-56
68	0x9b	-101
69	0x19	25
70	0x93	-109
71	0x0f	15
72	0x11	17
73	0x47	71
74	0xe1	-31
75	0xac	-84
76	0x17	23
77	0x15	21
78	0x09	9
79	0x84	-124
80	0x05	5
81	0xc3	-61
82	0x7f	127
83	0x0a	10
84	0xd8	-40
85	0xd1	-47
86	0xfa	-6
87	0x73	115
88	0xb1	-79
89	0x9e	-98
90	0xe3	-29
91	0x03	3
92	0xdd	-35
93	0xf8	-8
94	0x81	-127
95	0x17	23
96	0xe0	-32
97	0xfd	-3
98	0x08	8
99	0x0f	15
100	0xff	-1
101	0x41	65
102	0x04	4
103	0x12	18
104	0x1b	27
105	0x08	8
106	0xf2	-14
107	0x1f	31
108	0xf2	-14
109	0xfd	-3
110	0x10	16
111	0x04	4
112	0x99	-103
113	0x1d	29
114	0xfd	-3
115	0x4d	77
116	0xe1	-31
117	0xf4	-12
118	0xee	-18
119	0xfa	-6
120	0xfc	-4
121	0xc5	-59
122	0xfd	-3
123	0x1d	29
124	0xf0	-16
125	0x05	5
126	0x04	4
127	0xea	-22
128	0x08	8
129	0xe8	-24
130	0x10	16
131	0xed	-19
132	0x00	0
133	0x2f	47
134	0x29	41
135	0xf3	-13
136	0x32	50
137	0x26	38
138	0xf1	-15
139	0x0b	11
140	0xd5	-43
141	0x03	3
142	0xfe	-2
143	0xfa	-6
144	0x7e	126
145	0x07	7
146	0x01	1
147	0x9e	-98
148	0x0e	14
149	0xe5	-27
150	0x23	35
151	0xf0	-16
152	0x09	9
153	0x09	9
154	0xf3	-13
155	0x35	53
156	0xf9	-7
157	0xff	-1
158	0x12	18
159	0xdf	-33
160	0x00	0
161	0xce	-50
162	0xc4	-60
163	0xaa	-86
164	0x0a	10
165	0xb7	-73
166	0x84	-124
167	0xee	-18
168	0x05	5
169	0x63	99
170	0xf1	-15
171	0x81	-127
172	0xf8	-8
173	0x21	33
174	0x0c	12
175	0x94	-108
176	0x11	17
177	0xcb	-53
178	0xfe	-2
179	0x7f	127
180	0xfd	-3
181	0x3b	59
182	0xd7	-41
183	0x28	40
184	0xc2	-62
185	0x81	-127
186	0x27	39
187	0xa8	-88
188	0xd3	-45
189	0xf2	-14
190	0xf3	-13
191	0xfb	-5
192	0x1a	26
193	0x81	-127
194	0x81	-127
195	0x72	114
196	0x81	-127
197	0x81	-127
198	0x81	-127
199	0x81	-127
200	0x81	-127
201	0xa0	-96
202	0x7f	127
203	0x81	-127
204	0x7f	127
205	0x7f	127
206	0x23	35
207	0x81	-127
208	0xad	-83
209	0x7f	127
210	0x7f	127
211	0x96	-106
212	0x7f	127
213	0x7f	127
214	0x70	112
215	0x7f	127
216	0x7f	127
217	0x81	-127
218	0x81	-127
219	0x1c	28
220	0x81	-127
221	0x81	-127
222	0x5d	93
223	0x7f	127
224	0x81	-127
225	0x7f	127
226	0xe3	-29
227	0xd7	-41
228	0x7f	127
229	0x81	-127
230	0x7f	127
231	0x7f	127
232	0x7f	127
233	0xb0	-80
234	0x7f	127
235	0x7f	127
236	0x7f	127
237	0x87	-121
238	0x66	102
239	0x6a	106
240	0x36	54
241	0x05	5
242	0x31	49
243	0xf3	-13
244	0x05	5
245	0xc3	-61
246	0x2c	44
247	0x13	19
248	0xe8	-24
249	0x0e	14
250	0x97	-105
251	0xf8	-8
252	0x00	0
253	0xd8	-40
254	0x7f	127
255	0x04	4

sequential/model/block_2_project/Conv2D i1 [8, 1, 1, 48]
0	0xcb	-53
1	0xf4	-12
2	0xdc	-36
3	0x10	16
4	0x06	6
5	0xe7	-25
6	0x00	0
7	0x02	2
8	0x8c	-116
9	0x7f	127
10	0xd9	-39
11	0x73	115
12	0x75	117
13	0x07	7
14	0x48	72
15	0xed	-19
16	0xf9	-7
17	0xdf	-33
18	0x07	7
19	0x04	4
20	0xf8	-8
21	0xfa	-6
22	0xea	-22
23	0xdd	-35
24	0x17	23
25	0xa1	-95
26	0x0a	10
27	0x41	65
28	0xf4	-12
29	0x0a	10
30	0x13	19
31	0xda	-38
32	0xfd	-3
33	0xb2	-78
34	0x6c	108
35	0x14	20
36	0xfd	-3
37	0xfa	-6
38	0xfa	-6
39	0xee	-18
40	0x74	116
41	0xfc	-4
42	0x2f	47
43	0xe8	-24
44	0xe1	-31
45	0x19	25
46	0xef	-17
47	0xee	-18
48	0xff	-1
49	0x21	33
50	0x7f	127
51	0x05	5
52	0xfb	-5
53	0xe8	-24
54	0x01	1
55	0xad	-83
56	0x1d	29
57	0xff	-1
58	0x16	22
59	0x06	6
60	0xec	-20
61	0x07	7
62	0xfa	-6
63	0x8a	-118
64	0x0a	10
65	0xc9	-55
66	0x09	9
67	0x05	5
68	0xe6	-26
69	0x20	32
70	0x18	24
71	0xde	-34
72	0xee	-18
73	0xf8	-8
74	0x0e	14
75	0x01	1
76	0x0c	12
77	0xfb	-5
78	0x0d	13
79	0xff	-1
80	0xfb	-5
81	0x0c	12
82	0x10	16
83	0x0c	12
84	0xf4	-12
85	0xdf	-33
86	0x41	65
87	0xc7	-57
88	0x0b	11
89	0x24	36
90	0xf5	-11
91	0x1a	26
92	0xf1	-15
93	0x08	8
94	0x19	25
95	0xff	-1
96	0x05	5
97	0xcf	-49
98	0x11	17
99	0xd5	-43
100	0x21	33
101	0x1b	27
102	0xfa	-6
103	0xe3	-29
104	0x06	6
105	0xff	-1
106	0xfe	-2
107	0x0e	14
108	0xf6	-10
109	0x3a	58
110	0x06	6
111	0xff	-1
112	0xda	-38
113	0x7f	127
114	0xe7	-25
115	0xde	-34
116	0xf1	-15
117	0x16	22
118	0xda	-38
119	0xf6	-10
120	0x7a	122
121	0x02	2
122	0x00	0
123	0xf9	-7
124	0xe3	-29
125	0xf7	-9
126	0x02	2
127	0xd7	-41
128	0xf8	-8
129	0xf2	-14
130	0x01	1
131	0x0a	10
132	0xf6	-10
133	0xfe	-2
134	0xf2	-14
135	0x07	7
136	0x10	16
137	0xec	-20
138	0xed	-19
139	0x00	0
140	0x02	2
141	0x1a	26
142	0xe7	-25
143	0xd8	-40
144	0x01	1
145	0xa9	-87
146	0xfe	-2
147	0x08	8
148	0x03	3
149	0xfa	-6
150	0xf6	-10
151	0xfe	-2
152	0xf9	-7
153	0xf4	-12
154	0x11	17
155	0x15	21
156	0x0d	13
157	0xf7	-9
158	0x31	49
159	0x02	2
160	0xf7	-9
161	0xeb	-21
162	0x03	3
163	0x17	23
164	0xfa	-6
165	0x14	20
166	0xe9	-23
167	0x03	3
168	0x06	6
169	0x34	52
170	0x01	1
171	0x07	7
172	0xf9	-7
173	0x05	5
174	0x7f	127
175	0x01	1
176	0x0c	12
177	0x07	7
178	0xfd	-3
179	0xff	-1
180	0xeb	-21
181	0xf2	-14
182	0xf9	-7
183	0x0c	12
184	0xf7	-9
185	0x06	6
186	0xf7	-9
187	0x1b	27
188	0xf9	-7
189	0x01	1
190	0xff	-1
191	0x22	34
192	0x9e	-98
193	0x07	7
194	0x00	0
195	0x02	2
196	0x00	0
197	0xda	-38
198	0x01	1
199	0x07	7
200	0x28	40
201	0xdb	-37
202	0x14	20
203	0xee	-18
204	0xe0	-32
205	0x01	1
206	0xf4	-12
207	0xf7	-9
208	0x02	2
209	0x07	7
210	0x01	1
211	0x19	25
212	0x09	9
213	0xe4	-28
214	0x0e	14
215	0x03	3
216	0xfa	-6
217	0x2d	45
218	0x06	6
219	0x6d	109
220	0x02	2
221	0x01	1
222	0xf9	-7
223	0xe1	-31
224	0x00	0
225	0x81	-127
226	0xe1	-31
227	0x0b	11
228	0x03	3
229	0xfa	-6
230	0x02	2
231	0x01	1
232	0xce	-50
233	0xfb	-5
234	0xf5	-11
235	0x11	17
236	0xc7	-57
237	0x03	3
238	0x06	6
239	0x06	6
240	0xe8	-24
241	0x1a	26
242	0x16	22
243	0x07	7
244	0xd1	-47
245	0x0b	11
246	0xfd	-3
247	0x2f	47
248	0x15	21
249	0x04	4
250	0x0e	14
251	0x07	7
252	0xfb	-5
253	0xd3	-45
254	0x07	7
255	0x23	35

sequential/model/block_3_expand/Conv2D i1 [48, 1, 1, 8]
0	0x81	-127
1	0x00	0
2	0xfe	-2
3	0x4a	74
4	0xdc	-36
5	0x29	41
6	0x19	25
7	0xe2	-30
8	0x1d	29
9	0x49	73
10	0x2f	47
11	0x15	21
12	0x10	16
13	0xd6	-42
14	0x68	104
15	0x7f	127
16	0xd8	-40
17	0xff	-1
18	0x02	2
19	0xff	-1
20	0x81	-127
21	0xf3	-13
22	0x0c	12
23	0x03	3
24	0x64	100
25	0xfd	-3
26	0xf3	-13
27	0x85	-123
28	0x81	-127
29	0x11	17
30	0x23	35
31	0xee	-18
32	0x81	-127
33	0x2d	45
34	0xf0	-16
35	0xf6	-10
36	0x47	71
37	0xf3	-13
38	0x2d	45
39	0x15	21
40	0x9a	-102
41	0xe5	-27
42	0x15	21
43	0xf7	-9
44	0x81	-127
45	0x08	8
46	0x09	9
47	0x55	85
48	0xf0	-16
49	0x81	-127
50	0x19	25
51	0xef	-17
52	0x0d	13
53	0x03	3
54	0xfd	-3
55	0x21	33
56	0xbe	-66
57	0xfc	-4
58	0x03	3
59	0x66	102
60	0x7f	127
61	0xdf	-33
62	0xdd	-35
63	0x06	6
64	0x4a	74
65	0x04	4
66	0x02	2
67	0x81	-127
68	0x00	0
69	0xe9	-23
70	0xd3	-45
71	0xde	-34
72	0xfb	-5
73	0x81	-127
74	0xf8	-8
75	0xfb	-5
76	0x03	3
77	0x56	86
78	0xcc	-52
79	0x56	86
80	0xa2	-94
81	0xfb	-5
82	0xff	-1
83	0x16	22
84	0x81	-127
85	0x47	71
86	0x3f	63
87	0xf0	-16
88	0x73	115
89	0x0a	10
90	0x28	40
91	0x0d	13
92	0xc5	-59
93	0xd4	-44
94	0xdf	-33
95	0x81	-127
96	0x00	0
97	0x0e	14
98	0x2a	42
99	0xf9	-7
100	0x0a	10
101	0xb2	-78
102	0x7f	127
103	0x3f	63
104	0x42	66
105	0xe5	-27
106	0xf9	-7
107	0xf2	-14
108	0x7d	125
109	0x7f	127
110	0x77	119
111	0xd5	-43
112	0x7f	127
113	0x39	57
114	0xf3	-13
115	0x13	19
116	0x9b	-101
117	0xed	-19
118	0xe5	-27
119	0xed	-19
120	0xf1	-15
121	0x81	-127
122	0x10	16
123	0xf3	-13
124	0x04	4
125	0x04	4
126	0x05	5
127	0x24	36
128	0xcc	-52
129	0xf1	-15
130	0x04	4
131	0xff	-1
132	0x81	-127
133	0x00	0
134	0x0e	14
135	0x04	4
136	0xe6	-26
137	0x67	103
138	0x8d	-115
139	0x03	3
140	0x0c	12
141	0x81	-127
142	0x6c	108
143	0xa9	-87
144	0x7f	127
145	0xe4	-28
146	0xd5	-43
147	0x0e	14
148	0xc4	-60
149	0x1a	26
150	0x0b	11
151	0x66	102
152	0x7f	127
153	0xce	-50
154	0xeb	-21
155	0xfa	-6
156	0x2f	47
157	0x00	0
158	0x20	32
159	0x07	7
160	0x7f	127
161	0x18	24
162	0xef	-17
163	0x79	121
164	0xfe	-2
165	0x23	35
166	0x02	2
167	0xc7	-57
168	0x08	8
169	0x20	32
170	0xc3	-61
171	0x05	5
172	0xe9	-23
173	0x5a	90
174	0x81	-127
175	0xaa	-86
176	0x81	-127
177	0x16	22
178	0x1e	30
179	0xfb	-5
180	0xdf	-33
181	0x01	1
182	0xcc	-52
183	0xe7	-25
184	0xd8	-40
185	0xc6	-58
186	0x02	2
187	0x16	22
188	0x81	-127
189	0x3f	63
190	0x4c	76
191	0xf0	-16
192	0x7f	127
193	0xf8	-8
194	0xf6	-10
195	0xfa	-6
196	0xa8	-88
197	0xf7	-9
198	0x01	1
199	0x09	9
200	0x17	23
201	0xf2	-14
202	0x01	1
203	0xe8	-24
204	0x7f	127
205	0x34	52
206	0x33	51
207	0xdf	-33
208	0x00	0
209	0x9d	-99
210	0x05	5
211	0xda	-38
212	0x05	5
213	0x81	-127
214	0x50	80
215	0xcd	-51
216	0xef	-17
217	0x81	-127
218	0x19	25
219	0xf2	-14
220	0xfd	-3
221	0xc8	-56
222	0x20	32
223	0xf8	-8
224	0x9d	-99
225	0x24	36
226	0xe5	-27
227	0x0f	15
228	0xf1	-15
229	0xe4	-28
230	0x7f	127
231	0x61	97
232	0xf3	-13
233	0x2b	43
234	0x0f	15
235	0x05	5
236	0x00	0
237	0x29	41
238	0x99	-103
239	0x81	-127
240	0x7f	127
241	0xe1	-31
242	0xfe	-2
243	0x08	8
244	0xaf	-81
245	0x03	3
246	0xd3	-45
247	0xea	-22
248	0xf6	-10
249	0xe5	-27
250	0x40	64
251	0xf0	-16
252	0x12	18
253	0x8e	-114
254	0x7f	127
255	0x44	68

sequential/model/block_3_depthwise_BN/FusedBatchNormV3;sequential/model/block_3_depthwise/depthwise i1 [1, 3, 3, 48]
0	0x45	69
1	0xa4	-92
2	0x61	97
3	0x46	70
4	0x35	53
5	0xde	-34
6	0x6a	106
7	0xc0	-64
8	0x3b	59
9	0xa8	-88
10	0xb0	-80
11	0x2f	47
12	0x33	51
13	0xd6	-42
14	0xb8	-72
15	0xa6	-90
16	0x65	101
17	0x4e	78
18	0x31	49
19	0x4e	78
20	0x42	66
21	0xb6	-74
22	0xad	-83
23	0x32	50
24	0xe0	-32
25	0xd8	-40
26	0xc0	-64
27	0xc0	-64
28	0xbd	-67
29	0x3d	61
30	0xc1	-63
31	0x8e	-114
32	0xf3	-13
33	0x29	41
34	0x44	68
35	0x40	64
36	0xbf	-65
37	0x35	53
38	0xce	-50
39	0xea	-22
40	0x32	50
41	0xb6	-74
42	0x39	57
43	0x3e	62
44	0xa2	-94
45	0x0b	11
46	0x4b	75
47	0xdf	-33
48	0x52	82
49	0xa0	-96
50	0x7f	127
51	0x55	85
52	0xb3	-77
53	0xbc	-68
54	0xc7	-57
55	0xac	-84
56	0x60	96
57	0x9a	-102
58	0xc1	-63
59	0x4a	74
60	0x4f	79
61	0x93	-109
62	0xa0	-96
63	0x5b	91
64	0xda	-38
65	0x60	96
66	0x52	82
67	0x7f	127
68	0x55	85
69	0x8c	-116
70	0x34	52
71	0x47	71
72	0xcc	-52
73	0xb3	-77
74	0xbb	-69
75	0xb0	-80
76	0x38	56
77	0x4f	79
78	0xe2	-30
79	0x81	-127
80	0xaa	-86
81	0x4f	79
82	0x51	81
83	0x53	83
84	0xae	-82
85	0x52	82
86	0xae	-82
87	0xf0	-16
88	0x4c	76
89	0xa2	-94
90	0x53	83
91	0x59	89
92	0xb7	-73
93	0x81	-127
94	0x5d	93
95	0x99	-103
96	0x22	34
97	0xd2	-46
98	0x46	70
99	0x25	37
100	0x12	18
101	0xd7	-41
102	0xd1	-47
103	0xd9	-39
104	0x2a	42
105	0xe1	-31
106	0x05	5
107	0x22	34
108	0x1d	29
109	0xb2	-78
110	0xc9	-55
111	0xfe	-2
112	0xca	-54
113	0x25	37
114	0x22	34
115	0x46	70
116	0x21	33
117	0xc9	-55
118	0x1f	31
119	0x1a	26
120	0xe4	-28
121	0xd3	-45
122	0xd4	-44
123	0xea	-22
124	0x1f	31
125	0x1e	30
126	0x58	88
127	0xa7	-89
128	0xac	-84
129	0x2b	43
130	0x23	35
131	0x22	34
132	0xe3	-29
133	0x27	39
134	0xdb	-37
135	0xf6	-10
136	0x28	40
137	0xd8	-40
138	0x22	34
139	0x2a	42
140	0xfa	-6
141	0xf7	-9
142	0x24	36
143	0xb7	-73
144	0x5c	92
145	0x90	-112
146	0xd7	-41
147	0x5d	93
148	0x37	55
149	0xae	-82
150	0x7f	127
151	0xa7	-89
152	0x57	87
153	0x8f	-113
154	0xb8	-72
155	0x52	82
156	0x53	83
157	0x92	-110
158	0xf3	-13
159	0x81	-127
160	0x7f	127
161	0x6b	107
162	0x4a	74
163	0xda	-38
164	0x54	84
165	0x6c	108
166	0x81	-127
167	0x49	73
168	0x49	73
169	0xb5	-75
170	0xa3	-93
171	0x9e	-98
172	0x81	-127
173	0x56	86
174	0xbb	-69
175	0xf7	-9
176	0xa8	-88
177	0x46	70
178	0x6a	106
179	0x60	96
180	0xab	-85
181	0x4f	79
182	0xb0	-80
183	0x59	89
184	0x54	84
185	0x9b	-101
186	0x57	87
187	0x5a	90
188	0xa7	-89
189	0x6b	107
190	0x5e	94
191	0xa5	-91
192	0x7f	127
193	0x81	-127
194	0xbf	-65
195	0x7f	127
196	0x81	-127
197	0x81	-127
198	0xa5	-91
199	0x81	-127
200	0x7f	127
201	0x81	-127
202	0x81	-127
203	0x7f	127
204	0x7f	127
205	0x81	-127
206	0xea	-22
207	0x60	96
208	0xbe	-66
209	0x7f	127
210	0x7f	127
211	0xcd	-51
212	0x7f	127
213	0x7f	127
214	0x45	69
215	0x7f	127
216	0x7f	127
217	0x81	-127
218	0x81	-127
219	0x81	-127
220	0x35	53
221	0x7f	127
222	0xe4	-28
223	0x10	16
224	0x81	-127
225	0x7f	127
226	0x7f	127
227	0x7f	127
228	0x81	-127
229	0x7f	127
230	0x81	-127
231	0x7f	127
232	0x7f	127
233	0x81	-127
234	0x7f	127
235	0x7f	127
236	0x81	-127
237	0xf5	-11
238	0x7f	127
239	0x81	-127
240	0x3f	63
241	0xb2	-78
242	0xdf	-33
243	0x42	66
244	0x25	37
245	0xc2	-62
246	0xcf	-49
247	0xc2	-62
248	0x38	56
249	0xd6	-42
250	0xc4	-60
251	0x3a	58
252	0x30	48
253	0xcb	-53
254	0xf0	-16
255	0x0a	10

sequential/model/block_3_project/Conv2D i1 [16, 1, 1, 48]
0	0xf0	-16
1	0xfd	-3
2	0xe9	-23
3	0x09	9
4	0x18	24
5	0xfe	-2
6	0x02	2
7	0x69	105
8	0xcd	-51
9	0x10	16
10	0x2a	42
11	0xfa	-6
12	0x11	17
13	0xf0	-16
14	0xf3	-13
15	0x0e	14
16	0x0f	15
17	0xf3	-13
18	0xf8	-8
19	0xfc	-4
20	0x40	64
21	0xf9	-7
22	0x15	21
23	0x7f	127
24	0xf0	-16
25	0x57	87
26	0xfb	-5
27	0xf2	-14
28	0x1a	26
29	0xf0	-16
30	0x19	25
31	0xe7	-25
32	0xef	-17
33	0x34	52
34	0x14	20
35	0xd0	-48
36	0x10	16
37	0x30	48
38	0x12	18
39	0xf4	-12
40	0x94	-108
41	0xe6	-26
42	0x14	20
43	0x2b	43
44	0x24	36
45	0x1b	27
46	0x83	-125
47	0xce	-50
48	0xdb	-37
49	0xf4	-12
50	0x15	21
51	0x0e	14
52	0xdf	-33
53	0x0b	11
54	0x01	1
55	0x38	56
56	0xc9	-55
57	0xde	-34
58	0x06	6
59	0xd4	-44
60	0xea	-22
61	0xee	-18
62	0x00	0
63	0xfd	-3
64	0xe7	-25
65	0x77	119
66	0xf6	-10
67	0x12	18
68	0x08	8
69	0x08	8
70	0xe4	-28
71	0xf0	-16
72	0x19	25
73	0xd5	-43
74	0x11	17
75	0x18	24
76	0xe6	-26
77	0xaa	-86
78	0xda	-38
79	0x15	21
80	0xeb	-21
81	0xfb	-5
82	0x20	32
83	0xfe	-2
84	0xfc	-4
85	0xd7	-41
86	0x02	2
87	0x11	17
88	0xed	-19
89	0xe1	-31
90	0x7f	127
91	0x0c	12
92	0x0a	10
93	0xff	-1
94	0x17	23
95	0xf4	-12
96	0xeb	-21
97	0xf9	-7
98	0xf3	-13
99	0xdc	-36
100	0xfe	-2
101	0xbf	-65
102	0x05	5
103	0xeb	-21
104	0x01	1
105	0x0d	13
106	0x10	16
107	0x1a	26
108	0x0f	15
109	0x0f	15
110	0xf3	-13
111	0x08	8
112	0xfc	-4
113	0xec	-20
114	0xe7	-25
115	0xf3	-13
116	0xfc	-4
117	0xff	-1
118	0xff	-1
119	0x81	-127
120	0xf3	-13
121	0x4a	74
122	0xf1	-15
123	0x04	4
124	0xff	-1
125	0xec	-20
126	0xfd	-3
127	0xfa	-6
128	0xf9	-7
129	0x36	54
130	0x0b	11
131	0xff	-1
132	0x16	22
133	0x0b	11
134	0x1a	26
135	0x01	1
136	0xd8	-40
137	0x03	3
138	0xed	-19
139	0xfa	-6
140	0xff	-1
141	0xf6	-10
142	0x0f	15
143	0x08	8
144	0xf9	-7
145	0x20	32
146	0x02	2
147	0xe2	-30
148	0xff	-1
149	0x00	0
150	0x02	2
151	0xfc	-4
152	0xed	-19
153	0xfd	-3
154	0x00	0
155	0x26	38
156	0x81	-127
157	0x06	6
158	0xfb	-5
159	0xfe	-2
160	0x01	1
161	0x05	5
162	0xee	-18
163	0xfe	-2
164	0xe2	-30
165	0x08	8
166	0x06	6
167	0x10	16
168	0xf9	-7
169	0xf5	-11
170	0x03	3
171	0x18	24
172	0xf7	-9
173	0x12	18
174	0x04	4
175	0x11	17
176	0x04	4
177	0x01	1
178	0x11	17
179	0x13	19
180	0xf6	-10
181	0x1a	26
182	0x29	41
183	0x04	4
184	0x0a	10
185	0x06	6
186	0x17	23
187	0xe3	-29
188	0x08	8
189	0xfb	-5
190	0x04	4
191	0x13	19
192	0x24	36
193	0xe0	-32
194	0x09	9
195	0x0b	11
196	0x14	20
197	0x1c	28
198	0x17	23
199	0xe8	-24
200	0xe2	-30
201	0x03	3
202	0xf4	-12
203	0xed	-19
204	0x01	1
205	0x0c	12
206	0x01	1
207	0x10	16
208	0x15	21
209	0xf8	-8
210	0xb1	-79
211	0x03	3
212	0xfb	-5
213	0x0b	11
214	0x0e	14
215	0x48	72
216	0x01	1
217	0xe5	-27
218	0x06	6
219	0x30	48
220	0x09	9
221	0xb6	-74
222	0x13	19
223	0x07	7
224	0x0d	13
225	0xdd	-35
226	0x20	32
227	0x81	-127
228	0x0c	12
229	0x24	36
230	0xfe	-2
231	0x12	18
232	0xed	-19
233	0x12	18
234	0x08	8
235	0xe9	-23
236	0xf5	-11
237	0xec	-20
238	0x09	9
239	0x06	6
240	0x1e	30
241	0x01	1
242	0xec	-20
243	0x3a	58
244	0x00	0
245	0xf9	-7
246	0x07	7
247	0x18	24
248	0x02	2
249	0xfc	-4
250	0x28	40
251	0x08	8
252	0x03	3
253	0x34	52
254	0x02	2
255	0x01	1

sequential/model/block_4_expand/Conv2D i1 [96, 1, 1, 16]
0	0x2e	46
1	0xea	-22
2	0x7f	127
3	0x6c	108
4	0x47	71
5	0xe3	-29
6	0x1b	27
7	0xe3	-29
8	0x79	121
9	0xee	-18
10	0xc7	-57
11	0xb6	-74
12	0x21	33
13	0x58	88
14	0xd7	-41
15	0xae	-82
16	0x22	34
17	0x4f	79
18	0xf8	-8
19	0xfd	-3
20	0x5c	92
21	0xfc	-4
22	0x0b	11
23	0x1d	29
24	0x38	56
25	0x4b	75
26	0xde	-34
27	0x7f	127
28	0x01	1
29	0xe6	-26
30	0x61	97
31	0xa2	-94
32	0x17	23
33	0xc7	-57
34	0x01	1
35	0xfe	-2
36	0xc4	-60
37	0x22	34
38	0xce	-50
39	0x59	89
40	0xb1	-79
41	0xa5	-91
42	0x0a	10
43	0x50	80
44	0xf7	-9
45	0x81	-127
46	0x54	84
47	0xa3	-93
48	0x7f	127
49	0x7d	125
50	0xfc	-4
51	0x25	37
52	0x83	-125
53	0xf2	-14
54	0xbe	-66
55	0xe5	-27
56	0x01	1
57	0xfe	-2
58	0x6e	110
59	0xba	-70
60	0xc6	-58
61	0x60	96
62	0xd1	-47
63	0xdb	-37
64	0x04	4
65	0xfc	-4
66	0x14	20
67	0x0a	10
68	0xe6	-26
69	0x1e	30
70	0xef	-17
71	0x2b	43
72	0xbf	-65
73	0xdb	-37
74	0xfc	-4
75	0xfd	-3
76	0xfb	-5
77	0x81	-127
78	0x19	25
79	0x02	2
80	0x7f	127
81	0xcf	-49
82	0xe7	-25
83	0x03	3
84	0xf6	-10
85	0x88	-120
86	0xe4	-28
87	0x10	16
88	0xfb	-5
89	0x0a	10
90	0x82	-126
91	0xfa	-6
92	0x17	23
93	0xf9	-7
94	0xfa	-6
95	0x1d	29
96	0x81	-127
97	0xb8	-72
98	0xf4	-12
99	0x61	97
100	0xcb	-53
101	0x01	1
102	0xd2	-46
103	0x1d	29
104	0x87	-121
105	0xb4	-76
106	0xb8	-72
107	0xdf	-33
108	0x1b	27
109	0x3b	59
110	0xf8	-8
111	0x66	102
112	0xee	-18
113	0x0e	14
114	0xb4	-76
115	0x30	48
116	0x28	40
117	0x81	-127
118	0xe8	-24
119	0x29	41
120	0x0b	11
121	0xe2	-30
122	0x0f	15
123	0xfb	-5
124	0xff	-1
125	0x12	18
126	0xd7	-41
127	0x0f	15
128	0x21	33
129	0xce	-50
130	0xf6	-10
131	0xf5	-11
132	0x0a	10
133	0x1c	28
134	0xc5	-59
135	0xc1	-63
136	0xf4	-12
137	0x0c	12
138	0xb9	-71
139	0x09	9
140	0x81	-127
141	0x00	0
142	0x01	1
143	0x18	24
144	0x19	25
145	0xca	-54
146	0x3d	61
147	0x7f	127
148	0x03	3
149	0x18	24
150	0xfa	-6
151	0xb5	-75
152	0x7e	126
153	0xa5	-91
154	0x01	1
155	0xeb	-21
156	0xfa	-6
157	0x32	50
158	0xba	-70
159	0x11	17
160	0x81	-127
161	0xb7	-73
162	0xf7	-9
163	0xce	-50
164	0x75	117
165	0x31	49
166	0x2f	47
167	0x49	73
168	0x78	120
169	0xb4	-76
170	0xa6	-90
171	0x21	33
172	0x64	100
173	0x8c	-116
174	0x87	-121
175	0x53	83
176	0x29	41
177	0xf1	-15
178	0x81	-127
179	0x13	19
180	0x34	52
181	0x18	24
182	0xeb	-21
183	0x29	41
184	0xf4	-12
185	0xdf	-33
186	0xf4	-12
187	0xf9	-7
188	0xfe	-2
189	0x15	21
190	0xd6	-42
191	0x04	4
192	0x6a	106
193	0xc8	-56
194	0x09	9
195	0x03	3
196	0xfb	-5
197	0xc2	-62
198	0xc3	-61
199	0xe6	-26
200	0x28	40
201	0xfe	-2
202	0x81	-127
203	0xec	-20
204	0xcb	-53
205	0xf1	-15
206	0x00	0
207	0x3b	59
208	0x26	38
209	0xb4	-76
210	0x18	24
211	0xc3	-61
212	0x64	100
213	0x0b	11
214	0x98	-104
215	0x81	-127
216	0x2d	45
217	0xb9	-71
218	0x15	21
219	0x0e	14
220	0x0f	15
221	0xf0	-16
222	0x1a	26
223	0x00	0
224	0xc9	-55
225	0x1d	29
226	0xa3	-93
227	0xd0	-48
228	0x5a	90
229	0x81	-127
230	0x3e	62
231	0xc3	-61
232	0x3d	61
233	0x30	48
234	0xf9	-7
235	0x9d	-99
236	0x18	24
237	0x77	119
238	0xed	-19
239	0x1b	27
240	0x1a	26
241	0xfa	-6
242	0x3d	61
243	0x28	40
244	0x32	50
245	0xd4	-44
246	0xda	-38
247	0xf3	-13
248	0x14	20
249	0xc3	-61
250	0xbd	-67
251	0xf8	-8
252	0x81	-127
253	0xcc	-52
254	0xf2	-14
255	0x34	52

sequential/model/block_4_depthwise_BN/FusedBatchNormV3;sequential/model/block_4_depthwise/depthwise;sequential/model/block_6_depthwise/depthwise i1 [1, 3, 3, 96]
0	0xef	-17
1	0x06	6
2	0xec	-20
3	0x68	104
4	0xef	-17
5	0x17	23
6	0xc2	-62
7	0xcb	-53
8	0x11	17
9	0xfa	-6
10	0x63	99
11	0xf7	-9
12	0x03	3
13	0xf8	-8
14	0xfc	-4
15	0x36	54
16	0x05	5
17	0x10	16
18	0xde	-34
19	0x03	3
20	0x4a	74
21	0x03	3
22	0x20	32
23	0xdf	-33
24	0x02	2
25	0x11	17
26	0x2c	44
27	0x31	49
28	0x15	21
29	0x0d	13
30	0x18	24
31	0x30	48
32	0xf9	-7
33	0x1b	27
34	0x0a	10
35	0xf1	-15
36	0x05	5
37	0x30	48
38	0xc5	-59
39	0xe6	-26
40	0x14	20
41	0x09	9
42	0x1b	27
43	0x11	17
44	0xab	-85
45	0xc8	-56
46	0x19	25
47	0xfb	-5
48	0xf5	-11
49	0xec	-20
50	0xf8	-8
51	0xfa	-6
52	0x31	49
53	0x05	5
54	0xf7	-9
55	0x02	2
56	0xfd	-3
57	0xdc	-36
58	0x1c	28
59	0xe1	-31
60	0x1b	27
61	0xfe	-2
62	0x7f	127
63	0x1b	27
64	0xf3	-13
65	0xf5	-11
66	0x0b	11
67	0xcb	-53
68	0x42	66
69	0x23	35
70	0x02	2
71	0xf9	-7
72	0x4f	79
73	0xe0	-32
74	0x45	69
75	0x04	4
76	0x11	17
77	0x81	-127
78	0x1d	29
79	0x40	64
80	0x01	1
81	0x0f	15
82	0x7f	127
83	0xf2	-14
84	0x26	38
85	0x1d	29
86	0xe3	-29
87	0xed	-19
88	0x23	35
89	0xf9	-7
90	0xf2	-14
91	0x51	81
92	0x01	1
93	0x14	20
94	0xfe	-2
95	0x0c	12
96	0xd0	-48
97	0x0c	12
98	0xf8	-8
99	0x0a	10
100	0x34	52
101	0xf8	-8
102	0xf6	-10
103	0x81	-127
104	0x26	38
105	0x0e	14
106	0x81	-127
107	0xfb	-5
108	0xef	-17
109	0xf4	-12
110	0x04	4
111	0x5c	92
112	0x12	18
113	0xe2	-30
114	0xf2	-14
115	0xf0	-16
116	0x4c	76
117	0xa0	-96
118	0x7f	127
119	0x1a	26
120	0xc3	-61
121	0xe1	-31
122	0x97	-105
123	0xf0	-16
124	0x1b	27
125	0x24	36
126	0xcf	-49
127	0x12	18
128	0x77	119
129	0x0c	12
130	0xf2	-14
131	0xff	-1
132	0xe8	-24
133	0x7f	127
134	0xc0	-64
135	0x81	-127
136	0x09	9
137	0xed	-19
138	0xe2	-30
139	0x0e	14
140	0x2e	46
141	0x81	-127
142	0x7f	127
143	0xd4	-44
144	0xb4	-76
145	0x32	50
146	0x31	49
147	0x07	7
148	0x27	39
149	0xc0	-64
150	0x1f	31
151	0x38	56
152	0x24	36
153	0x2a	42
154	0x9b	-101
155	0x54	84
156	0x7f	127
157	0x22	34
158	0x04	4
159	0xec	-20
160	0x2b	43
161	0xda	-38
162	0xa0	-96
163	0xff	-1
164	0x25	37
165	0xe2	-30
166	0xee	-18
167	0x2e	46
168	0xd0	-48
169	0xd0	-48
170	0x6a	106
171	0xfc	-4
172	0xe2	-30
173	0xc4	-60
174	0xdf	-33
175	0x40	64
176	0xbd	-67
177	0x3e	62
178	0xf0	-16
179	0x09	9
180	0xf5	-11
181	0x30	48
182	0x36	54
183	0xd7	-41
184	0xe4	-28
185	0x36	54
186	0xf3	-13
187	0x48	72
188	0x81	-127
189	0xe1	-31
190	0x17	23
191	0x81	-127
192	0x00	0
193	0xfc	-4
194	0xe9	-23
195	0xb6	-74
196	0x08	8
197	0x12	18
198	0x26	38
199	0x16	22
200	0xfc	-4
201	0xfe	-2
202	0x05	5
203	0x3e	62
204	0x00	0
205	0xf4	-12
206	0xf6	-10
207	0x06	6
208	0xf4	-12
209	0x11	17
210	0xf0	-16
211	0x11	17
212	0x06	6
213	0x19	25
214	0x18	24
215	0xe0	-32
216	0x01	1
217	0xe1	-31
218	0x0a	10
219	0x0c	12
220	0xf9	-7
221	0x05	5
222	0x2e	46
223	0xb1	-79
224	0x2c	44
225	0x11	17
226	0x09	9
227	0xea	-22
228	0x0c	12
229	0x03	3
230	0xe2	-30
231	0xeb	-21
232	0x07	7
233	0x03	3
234	0xf0	-16
235	0x08	8
236	0x17	23
237	0xe0	-32
238	0x15	21
239	0x01	1
240	0x07	7
241	0xf8	-8
242	0x06	6
243	0xfb	-5
244	0x05	5
245	0x06	6
246	0xfa	-6
247	0x08	8
248	0xf9	-7
249	0x2c	44
250	0x07	7
251	0xfe	-2
252	0x0b	11
253	0xee	-18
254	0x03	3
255	0xef	-17

sequential/model/block_4_project/Conv2D i1 [16, 1, 1, 96]
0	0xff	-1
1	0x12	18
2	0xf6	-10
3	0x13	19
4	0x2d	45
5	0x45	69
6	0xdc	-36
7	0xe3	-29
8	0x2d	45
9	0x03	3
10	0x0d	13
11	0x08	8
12	0xf6	-10
13	0x0d	13
14	0x17	23
15	0x44	68
16	0x01	1
17	0xf9	-7
18	0xf8	-8
19	0xf9	-7
20	0x62	98
21	0xc8	-56
22	0x08	8
23	0xf0	-16
24	0xe9	-23
25	0xdc	-36
26	0xd6	-42
27	0xa1	-95
28	0xfa	-6
29	0xfb	-5
30	0x2e	46
31	0x30	48
32	0x76	118
33	0xfb	-5
34	0x04	4
35	0xfe	-2
36	0x09	9
37	0xec	-20
38	0xec	-20
39	0x09	9
40	0xe0	-32
41	0x0d	13
42	0x13	19
43	0xe1	-31
44	0x03	3
45	0xe2	-30
46	0xf3	-13
47	0x19	25
48	0xf3	-13
49	0x14	20
50	0x02	2
51	0xf7	-9
52	0xde	-34
53	0xf3	-13
54	0x07	7
55	0xfc	-4
56	0x26	38
57	0x17	23
58	0xeb	-21
59	0xe7	-25
60	0xc4	-60
61	0x1e	30
62	0xf6	-10
63	0xf6	-10
64	0x0d	13
65	0x09	9
66	0x38	56
67	0x01	1
68	0x0c	12
69	0x04	4
70	0x01	1
71	0xe5	-27
72	0xc2	-62
73	0xfc	-4
74	0xff	-1
75	0x03	3
76	0xf9	-7
77	0xa7	-89
78	0x07	7
79	0xee	-18
80	0x26	38
81	0xed	-19
82	0xc6	-58
83	0xd5	-43
84	0x1d	29
85	0xf3	-13
86	0x06	6
87	0x19	25
88	0xf9	-7
89	0x03	3
90	0x13	19
91	0xe0	-32
92	0x17	23
93	0x14	20
94	0xf4	-12
95	0x7f	127
96	0x4e	78
97	0x9f	-97
98	0x2c	44
99	0x52	82
100	0xf5	-11
101	0xbe	-66
102	0xf0	-16
103	0xd4	-44
104	0xe7	-25
105	0xa4	-92
106	0xf9	-7
107	0x1a	26
108	0x0a	10
109	0xc2	-62
110	0xdd	-35
111	0xca	-54
112	0xac	-84
113	0xfb	-5
114	0x18	24
115	0x16	22
116	0xdc	-36
117	0x93	-109
118	0xd9	-39
119	0x1b	27
120	0x7f	127
121	0xbf	-65
122	0xb6	-74
123	0x10	16
124	0xe4	-28
125	0x5e	94
126	0xf0	-16
127	0x33	51
128	0x0b	11
129	0x0d	13
130	0xd5	-43
131	0x18	24
132	0xeb	-21
133	0xf5	-11
134	0x32	50
135	0xe6	-26
136	0x01	1
137	0xb2	-78
138	0x4c	76
139	0xde	-34
140	0xc8	-56
141	0x10	16
142	0x38	56
143	0xfb	-5
144	0x23	35
145	0x16	22
146	0x00	0
147	0xb9	-71
148	0x40	64
149	0xb2	-78
150	0x28	40
151	0xea	-22
152	0x16	22
153	0x1c	28
154	0xef	-17
155	0x95	-107
156	0x25	37
157	0xbd	-67
158	0x14	20
159	0xcd	-51
160	0x04	4
161	0xac	-84
162	0x22	34
163	0x2e	46
164	0x29	41
165	0x33	51
166	0xd9	-39
167	0x01	1
168	0x9f	-97
169	0x27	39
170	0xeb	-21
171	0x42	66
172	0x25	37
173	0x60	96
174	0x12	18
175	0xea	-22
176	0x2a	42
177	0x06	6
178	0xb5	-75
179	0x23	35
180	0xad	-83
181	0x40	64
182	0xff	-1
183	0x3f	63
184	0xd5	-43
185	0x0c	12
186	0x14	20
187	0x0a	10
188	0x07	7
189	0xd3	-45
190	0x28	40
191	0x01	1
192	0x1c	28
193	0x11	17
194	0x0e	14
195	0xe3	-29
196	0x05	5
197	0xff	-1
198	0xf6	-10
199	0x25	37
200	0x41	65
201	0xf0	-16
202	0x0e	14
203	0x47	71
204	0xff	-1
205	0x0a	10
206	0x30	48
207	0x06	6
208	0xf4	-12
209	0xf2	-14
210	0x0e	14
211	0xf8	-8
212	0xec	-20
213	0xbf	-65
214	0x06	6
215	0xc6	-58
216	0xff	-1
217	0xf1	-15
218	0xe4	-28
219	0x19	25
220	0xf8	-8
221	0x15	21
222	0x7f	127
223	0xc3	-61
224	0x12	18
225	0xb7	-73
226	0xe7	-25
227	0x3d	61
228	0x11	17
229	0x7e	126
230	0xd4	-44
231	0xe8	-24
232	0x01	1
233	0xee	-18
234	0xfb	-5
235	0x24	36
236	0xd2	-46
237	0xce	-50
238	0xc1	-63
239	0x19	25
240	0x1d	29
241	0x1f	31
242	0xdf	-33
243	0xde	-34
244	0x1a	26
245	0xff	-1
246	0xfc	-4
247	0xe1	-31
248	0xe6	-26
249	0x02	2
250	0xfc	-4
251	0x1c	28
252	0x03	3
253	0x05	5
254	0x4d	77
255	0x5d	93

sequential/model/block_5_expand/Conv2D i1 [96, 1, 1, 16]
0	0x00	0
1	0x41	65
2	0xe7	-25
3	0x4e	78
4	0x1a	26
5	0x20	32
6	0x0c	12
7	0xf2	-14
8	0x1f	31
9	0x23	35
10	0xc5	-59
11	0x67	103
12	0x05	5
13	0x81	-127
14	0x2c	44
15	0x82	-126
16	0x14	20
17	0x33	51
18	0xf6	-10
19	0xea	-22
20	0x1a	26
21	0xe3	-29
22	0x7f	127
23	0x95	-107
24	0x01	1
25	0x57	87
26	0xf3	-13
27	0xee	-18
28	0x05	5
29	0xd0	-48
30	0x21	33
31	0x0c	12
32	0x81	-127
33	0x22	34
34	0xdc	-36
35	0xe9	-23
36	0x00	0
37	0xf9	-7
38	0x37	55
39	0x5d	93
40	0xe0	-32
41	0x37	55
42	0x6d	109
43	0xee	-18
44	0xbf	-65
45	0x0f	15
46	0x20	32
47	0xcd	-51
48	0xba	-70
49	0x41	65
50	0x32	50
51	0x40	64
52	0xcd	-51
53	0x3a	58
54	0x49	73
55	0x7f	127
56	0x0b	11
57	0x45	69
58	0x88	-120
59	0x06	6
60	0x2a	42
61	0xb7	-73
62	0xa8	-88
63	0xc3	-61
64	0x0d	13
65	0xff	-1
66	0x23	35
67	0x41	65
68	0xed	-19
69	0x41	65
70	0xfd	-3
71	0x2e	46
72	0x07	7
73	0xf0	-16
74	0xfe	-2
75	0xfc	-4
76	0x17	23
77	0xfc	-4
78	0x81	-127
79	0xe9	-23
80	0xf9	-7
81	0xe2	-30
82	0x3a	58
83	0xea	-22
84	0x08	8
85	0xe8	-24
86	0xfb	-5
87	0x1b	27
88	0xbb	-69
89	0x65	101
90	0xe2	-30
91	0x81	-127
92	0xf1	-15
93	0x18	24
94	0xc9	-55
95	0xe7	-25
96	0x0f	15
97	0x00	0
98	0x21	33
99	0xf5	-11
100	0x29	41
101	0x3b	59
102	0xbd	-67
103	0xb9	-71
104	0xf8	-8
105	0xfe	-2
106	0x2e	46
107	0xf2	-14
108	0x7f	127
109	0xe8	-24
110	0xf0	-16
111	0xdc	-36
112	0x14	20
113	0x0c	12
114	0x7f	127
115	0xf3	-13
116	0xea	-22
117	0xda	-38
118	0x07	7
119	0xf8	-8
120	0xb1	-79
121	0x1b	27
122	0xae	-82
123	0xd2	-46
124	0x0b	11
125	0xf9	-7
126	0x22	34
127	0xf2	-14
128	0x15	21
129	0x1e	30
130	0x4e	78
131	0x43	67
132	0xc7	-57
133	0x55	85
134	0x15	21
135	0x2f	47
136	0x2b	43
137	0x05	5
138	0x0c	12
139	0xa3	-93
140	0xda	-38
141	0x06	6
142	0x81	-127
143	0xb1	-79
144	0x20	32
145	0x89	-119
146	0x39	57
147	0x2f	47
148	0x0c	12
149	0xdf	-33
150	0x01	1
151	0x15	21
152	0x7f	127
153	0x02	2
154	0x51	81
155	0x0a	10
156	0xe4	-28
157	0x07	7
158	0x93	-109
159	0xe0	-32
160	0xd8	-40
161	0xa1	-95
162	0x05	5
163	0xed	-19
164	0x9a	-102
165	0x09	9
166	0xf2	-14
167	0x3b	59
168	0x64	100
169	0x7f	127
170	0x2e	46
171	0xe4	-28
172	0xe3	-29
173	0x40	64
174	0x53	83
175	0xf9	-7
176	0x2d	45
177	0xee	-18
178	0x08	8
179	0xa1	-95
180	0x0f	15
181	0xe4	-28
182	0x92	-110
183	0x81	-127
184	0xca	-54
185	0x2a	42
186	0xf6	-10
187	0xe2	-30
188	0x1f	31
189	0xe8	-24
190	0x29	41
191	0xc0	-64
192	0xf1	-15
193	0x05	5
194	0x0a	10
195	0xd8	-40
196	0xdd	-35
197	0xd9	-39
198	0xa0	-96
199	0xef	-17
200	0xd2	-46
201	0xb6	-74
202	0xe7	-25
203	0x10	16
204	0x19	25
205	0x7f	127
206	0x59	89
207	0x2e	46
208	0xdd	-35
209	0x9c	-100
210	0xbc	-68
211	0x1e	30
212	0xf6	-10
213	0xbd	-67
214	0x00	0
215	0xe8	-24
216	0x34	52
217	0x0c	12
218	0xf3	-13
219	0xf3	-13
220	0x17	23
221	0x12	18
222	0x7f	127
223	0x1f	31
224	0x01	1
225	0xc5	-59
226	0x39	57
227	0x1e	30
228	0x18	24
229	0x21	33
230	0x0a	10
231	0x7f	127
232	0x15	21
233	0x37	55
234	0x0c	12
235	0xd8	-40
236	0x0d	13
237	0x2c	44
238	0xc3	-61
239	0x77	119
240	0x15	21
241	0xdf	-33
242	0x02	2
243	0x3d	61
244	0x10	16
245	0xfd	-3
246	0x5f	95
247	0x00	0
248	0x05	5
249	0x81	-127
250	0x0e	14
251	0xdd	-35
252	0x00	0
253	0xeb	-21
254	0xf9	-7
255	0xdc	-36

sequential/model/block_5_depthwise_BN/FusedBatchNormV3;sequential/model/block_5_depthwise/depthwise;sequential/model/block_6_depthwise/depthwise i1 [1, 3, 3, 96]
0	0xd2	-46
1	0xb8	-72
2	0xf6	-10
3	0x7f	127
4	0x16	22
5	0x47	71
6	0x4b	75
7	0xc5	-59
8	0xf1	-15
9	0xee	-18
10	0xf1	-15
11	0xfb	-5
12	0xe2	-30
13	0x00	0
14	0x25	37
15	0x01	1
16	0xf7	-9
17	0xd4	-44
18	0x1b	27
19	0x16	22
20	0x13	19
21	0x81	-127
22	0x7f	127
23	0x05	5
24	0xac	-84
25	0x07	7
26	0x32	50
27	0xe4	-28
28	0x83	-125
29	0x81	-127
30	0x27	39
31	0x18	24
32	0x0d	13
33	0x1a	26
34	0x3c	60
35	0xee	-18
36	0xe2	-30
37	0xf6	-10
38	0x1e	30
39	0xf8	-8
40	0xf3	-13
41	0x1b	27
42	0x94	-108
43	0x46	70
44	0x19	25
45	0xbc	-68
46	0x25	37
47	0x2e	46
48	0xee	-18
49	0x34	52
50	0xe8	-24
51	0x13	19
52	0x03	3
53	0xfa	-6
54	0x10	16
55	0x30	48
56	0xa6	-90
57	0xce	-50
58	0xc4	-60
59	0xed	-19
60	0xf5	-11
61	0x00	0
62	0x0a	10
63	0x26	38
64	0x44	68
65	0xe7	-25
66	0x4a	74
67	0x0d	13
68	0xf8	-8
69	0x10	16
70	0x13	19
71	0x7f	127
72	0x17	23
73	0x17	23
74	0x1a	26
75	0xff	-1
76	0xf5	-11
77	0x11	17
78	0x7f	127
79	0xf9	-7
80	0xf2	-14
81	0x0f	15
82	0xe4	-28
83	0x14	20
84	0x7e	126
85	0x14	20
86	0xb4	-76
87	0xf0	-16
88	0xff	-1
89	0xe0	-32
90	0xf1	-15
91	0xda	-38
92	0x02	2
93	0xe7	-25
94	0xf1	-15
95	0x19	25
96	0x7f	127
97	0x81	-127
98	0x4b	75
99	0x6a	106
100	0xd5	-43
101	0x7f	127
102	0x27	39
103	0x8a	-118
104	0x46	70
105	0x04	4
106	0xef	-17
107	0x7f	127
108	0x7f	127
109	0x9e	-98
110	0xf3	-13
111	0x0f	15
112	0x0b	11
113	0x7f	127
114	0x7f	127
115	0x90	-112
116	0x7f	127
117	0xb4	-76
118	0x51	81
119	0x43	67
120	0x81	-127
121	0x8c	-116
122	0xbe	-66
123	0xde	-34
124	0xc9	-55
125	0x2e	46
126	0xc5	-59
127	0xec	-20
128	0xa7	-89
129	0x35	53
130	0x81	-127
131	0xac	-84
132	0xd5	-43
133	0xf2	-14
134	0xcb	-53
135	0x3d	61
136	0xff	-1
137	0x7f	127
138	0x7f	127
139	0x51	81
140	0xcd	-51
141	0x8f	-113
142	0x90	-112
143	0xce	-50
144	0xf1	-15
145	0x81	-127
146	0x2b	43
147	0x54	84
148	0x42	66
149	0xe1	-31
150	0x2d	45
151	0x53	83
152	0xd2	-46
153	0x2a	42
154	0xb1	-79
155	0x8f	-113
156	0xd4	-44
157	0xd6	-42
158	0xc3	-61
159	0x43	67
160	0x49	73
161	0xc3	-61
162	0x1a	26
163	0x1e	30
164	0xaf	-81
165	0x20	32
166	0xef	-17
167	0x5b	91
168	0x75	117
169	0x7f	127
170	0x0d	13
171	0x13	19
172	0x01	1
173	0x3a	58
174	0xdf	-33
175	0x34	52
176	0x41	65
177	0x7f	127
178	0x7f	127
179	0xe9	-23
180	0xf7	-9
181	0x4b	75
182	0x90	-112
183	0x7f	127
184	0x87	-121
185	0x9c	-100
186	0x05	5
187	0x81	-127
188	0xa6	-90
189	0x81	-127
190	0xda	-38
191	0x69	105
192	0xb6	-74
193	0xf4	-12
194	0x1e	30
195	0xae	-82
196	0x0f	15
197	0xe6	-26
198	0x40	64
199	0xf8	-8
200	0x50	80
201	0xdd	-35
202	0xe5	-27
203	0x12	18
204	0xed	-19
205	0xfb	-5
206	0xf7	-9
207	0xf3	-13
208	0xf7	-9
209	0xf0	-16
210	0x07	7
211	0xfc	-4
212	0xe9	-23
213	0x99	-103
214	0x1d	29
215	0xfe	-2
216	0x86	-122
217	0x61	97
218	0x08	8
219	0xc9	-55
220	0x74	116
221	0x32	50
222	0xf1	-15
223	0x09	9
224	0x01	1
225	0x0e	14
226	0x0e	14
227	0xe3	-29
228	0xf7	-9
229	0x22	34
230	0x13	19
231	0x0b	11
232	0x19	25
233	0x0c	12
234	0x8a	-118
235	0x40	64
236	0x12	18
237	0xee	-18
238	0x25	37
239	0x0d	13
240	0xf2	-14
241	0x0b	11
242	0xf0	-16
243	0x05	5
244	0xf6	-10
245	0x01	1
246	0xfd	-3
247	0x15	21
248	0xbf	-65
249	0x06	6
250	0xe0	-32
251	0x34	52
252	0x02	2
253	0x29	41
254	0x21	33
255	0xff	-1
